Model: "sequential"
_________________________________________________________________
 Layer (type)                Output Shape              Param #   
=================================================================
 normalization (Normalizatio  (None, 60, 12)           25        
 n)                                                              
                                                                 
 conv1d (Conv1D)             (None, 58, 96)            3552      
                                                                 
 max_pooling1d (MaxPooling1D  (None, 29, 96)           0         
 )                                                               
                                                                 
 bidirectional (Bidirectiona  (None, 29, 224)          187264    
 l)                                                              
                                                                 
 multi_head_attention (Multi  (None, 29, 224)          201600    
 HeadAttention)                                                  
                                                                 
 dropout (Dropout)           (None, 29, 224)           0         
                                                                 
 bidirectional_1 (Bidirectio  (None, 72)               75168     
 nal)                                                            
                                                                 
 dense (Dense)               (None, 1)                 73        
                                                                 
=================================================================
Total params: 467,682
Trainable params: 467,657
Non-trainable params: 25
_________________________________________________________________
Batch size: 512  |  window size: 60  |  epoch: 200
Saving prediction...
Prediction save complete!
MAE:  0.14323611646933732   MSE:  0.0746430816268071    RMSE:  0.2732088608131279   R2:  0.9826907140309468
…
